Model: "sequential_1"
_________________________________________________________________
Layer (type)                 Output Shape              Param #
=================================================================
conv2d_3 (Conv2D)            (None, 321, 24, 32)       320
_________________________________________________________________
max_pooling2d_3 (MaxPooling2 (None, 161, 12, 32)       0
_________________________________________________________________
batch_normalization_3 (Batch (None, 161, 12, 32)       128
_________________________________________________________________
conv2d_4 (Conv2D)            (None, 159, 10, 32)       9248
_________________________________________________________________
max_pooling2d_4 (MaxPooling2 (None, 80, 5, 32)         0
_________________________________________________________________
batch_normalization_4 (Batch (None, 80, 5, 32)         128
_________________________________________________________________
conv2d_5 (Conv2D)            (None, 79, 4, 32)         4128
_________________________________________________________________
max_pooling2d_5 (MaxPooling2 (None, 40, 2, 32)         0
_________________________________________________________________
batch_normalization_5 (Batch (None, 40, 2, 32)         128
_________________________________________________________________
flatten_1 (Flatten)          (None, 2560)              0
_________________________________________________________________
dense_2 (Dense)              (None, 64)                163904
_________________________________________________________________
dropout_1 (Dropout)          (None, 64)                0
_________________________________________________________________
dense_3 (Dense)              (None, 64)                4160
_________________________________________________________________
dropout_2 (Dropout)          (None, 64)                0
_________________________________________________________________
dense_4 (Dense)              (None, 13)                845
=================================================================
Total params: 182,989
Trainable params: 182,797
Non-trainable params: 192
_________________________________________________________________
Train on 3528 samples, validate on 882 samples
Epoch 1/120
Epoch 00001: saving model to train_ckpt/cp.ckpt
WARNING:tensorflow:Method (on_train_batch_end) is slow compared to the batch update (3.361001). Check your callbacks.
…
